trained_models/model_TinyVGG_pizza_steak_sushi_v1.pth (torch, 357746 bytes, 10 tensors)

weight f4 [10, 3, 3, 3]
000000 69 04 ad bd 94 7b d2 bc a3 74 c8 bd e6 83 84 bd
       -0.08448107 -0.025693692 -0.09787872 -0.0647047
000010 71 65 4a be 46 96 a0 3d 7f 61 37 be f2 31 bd bd
       -0.1976526 0.078411624 -0.17908286 -0.09238042
000020 3f 2a 3c be 7e 11 1f be af f3 bc bd 2a 00 3b bd
       -0.1837549 -0.15534016 -0.092261665 -0.045654453
000030 08 b8 9e 3c 72 b1 0c be 93 82 4f 3e 9d 19 50 3e
       0.019374862 -0.13739565 0.20264654 0.2032227
000040 51 10 48 3d 23 82 25 3e 8e ec 5e 3e 54 43 00 be
       0.048843686 0.16162924 0.21769926 -0.12525684
000050 4c d8 93 3c 42 5c 52 3e 3d cb b5 3d 71 95 4e 3e
       0.018047474 0.20543006 0.08876655 0.20174195
000060 76 d6 97 3d d2 b8 1c be 61 22 c0 3b fb a0 0e be
       0.07413952 -0.15304878 0.0058634733 -0.13928597
000070 ac 11 46 3d 12 8e 07 3c 99 1e 14 be 34 82 08 3e
       0.048356697 0.008273618 -0.14464797 0.13330919
000080 b4 ea a5 3c 9c cb f1 bd f7 c3 0b 3e f8 d6 57 be
       0.020253517 -0.118064135 0.13648973 -0.21078098
000090 13 e5 3b be e3 cd e1 3d aa b4 b5 3c 6c 03 9a bd
       -0.18349104 0.11025598 0.022180874 -0.07520184
0000a0 ac a5 40 3d 46 48 17 be 7e 66 1d 3e a5 23 a8 bd
       0.047032997 -0.14773664 0.15371129 -0.08209924
0000b0 5d 2e 0b be cd d3 f6 3d 29 f3 20 3b 2a bd 99 3b
       -0.13591905 0.120521165 0.0024558997 0.0046917396
0000c0 07 24 0c 3e 14 51 e0 3d 52 59 f2 3d b4 ea 4e 3a
       0.13685618 0.109529644 0.11833443 0.000789325
0000d0 e4 1c 1c be a6 11 79 3c 89 dc d7 3c 3f d4 0b 3e
       -0.15245396 0.015201962 0.026350277 0.13655184
0000e0 ec 5f 64 bd e8 97 b9 3d c0 3b f1 bd e7 da 58 3e
       -0.05575554 0.09062177 -0.117789745 0.21177255
0000f0 c5 37 85 bd 60 4b 30 3d b5 8b 3f 3e f7 0e 05 3e
       -0.06504778 0.043040633 0.18705638 0.1299399
000100 00 0a 4a bd fc a4 45 3e d7 4e db bd 36 ba 22 be
       -0.049325943 0.19301218 -0.10708397 -0.15891346
000110 03 de 45 3e 94 f8 05 3d a8 52 95 bd 55 9c 62 3d
       0.19322972 0.032707766 -0.07291156 0.05532487
000120 bd 49 cd 3d af 3e 4f 3e 28 83 b7 ba c7 94 bb bd
       0.1002383 0.20238756 -0.001400088 -0.091592364
000130 76 54 1d 3e fb a7 02 bc 00 db 9d 3c 3d 5b 21 be
       0.1536425 -0.00797462 0.019269466 -0.15757461
000140 db ff 45 3e 7c 47 2c 3d d0 31 3d 3d 0b 8e ee bc
       0.19335882 0.04206036 0.046190083 -0.029120466
000150 aa b9 35 3e 6a b3 0f 3e b2 ec d4 3d 9e 4a 09 be
       0.17746606 0.14033285 0.103967085 -0.1340737
000160 91 95 15 3e 6d 1a b9 bd d6 92 b8 3c 83 7d a8 3d
       0.14607836 -0.090382434 0.022530954 0.082270645
000170 b0 cc ac ba d1 2b 97 bd 7b cd 58 3c 1f 28 d6 bd
       -0.001318356 -0.07381404 0.013232584 -0.10456871
000180 1f 8f 90 bc e1 2c 99 bd 6b 3c b5 bd f6 a7 06 ba
       -0.01764637 -0.07479263 -0.088494144 -0.00051367225
000190 a8 d9 7f bd 04 43 c7 3d 61 56 8d 3d f7 cd 47 be
       -0.062463433 0.09729579 0.06901241 -0.19512163
0001a0 2a 9e fc 3d 31 3c bf bd ae 81 c0 3c d8 76 ed 3d
       0.12334855 -0.093376525 0.023499336 0.11594933
0001b0 0e 46 e2 3d 69 f6 1c 3e e5 e8 ec bd ab fc fb 3d
       0.11048518 0.15328373 -0.115678586 0.12304052
0001c0 89 27 14 3d 58 07 17 3e 5a c0 e5 3d 0f 3d 22 be
       0.036170516 0.14748895 0.11218329 -0.15843605
0001d0 2c 86 40 3d 0b 90 b9 3d 77 47 61 bc 3e 09 aa bb
       0.047002956 0.09060677 -0.013749949 -0.00518909
0001e0 bd 35 10 3e d2 ed 72 3d b5 76 31 3e 6e fe 34 be
       0.14083 0.059308834 0.1733044 -0.17675182
0001f0 2e 79 fb bc 02 4b 84 bd c4 cf c7 3d c0 de 11 3e
       -0.030697431 -0.06459619 0.09756425 0.14245129
000200 42 86 3a bc 5b 3c 30 bd b3 e1 1d bd 33 4e 14 be
       -0.011384549 -0.04302631 -0.03854532 -0.14482956
000210 92 58 56 3d 0e da fa 3d ce da cb 3d c3 00 a2 bd
       0.05233056 0.12248622 0.09953843 -0.079103015
000220 7b 19 3f 3c fd 9e 77 bd b6 5f 15 3e 5e 59 0c be
       0.01166379 -0.060454357 0.14587292 -0.13705966
000230 6b a2 2c bd 44 af 0d 3e 80 d9 15 bd 6c d9 08 3c
       -0.04214708 0.1383639 -0.036584377 0.008352619
000240 93 7f f0 bd 2c cb 4a be 4d 09 55 be 5f 13 f1 3d
       -0.11743083 -0.19804066 -0.20804329 0.11771273
000250 c6 89 31 be 87 57 ae 3d 0a 41 21 3e 90 0e e0 bd
       -0.17337713 0.08512788 0.15747467 -0.109402776
000260 39 6f 9e 3d 63 f3 9d 3c 00 6d cb bc 83 ca 84 bc
       0.07736058 0.019281095 -0.024832249 -0.016209846
000270 ff 05 2a 3c 01 34 55 bd 66 13 e0 3d 14 c6 53 3d
       0.010377406 -0.052051548 0.109412 0.051702574
000280 73 17 17 3e da 7b fa 3d 71 32 8f bd 56 39 22 be
       0.14755039 0.12230654 -0.06992043 -0.15842184
000290 d8 ac 3b 3e 0a 65 29 3e 7e 97 f7 bd a4 50 84 3d
       0.18327653 0.1654245 -0.12089442 0.064606935
0002a0 4e da 46 3e 15 ae a9 bd 87 d6 59 3e 85 78 1a 3e
       0.19419214 -0.08285157 0.21273242 0.15085037
0002b0 f0 e0 b2 bd da 5d 0e bd 26 fa 9b 3c ac 96 f5 bd
       -0.0873431 -0.034757473 0.019040179 -0.11991629
0002c0 2a ce 96 3d 83 16 ff 3d a7 39 fb bc 4e 29 91 bb
       0.073635414 0.12455466 -0.03066714 -0.0044299727
0002d0 6a c1 94 3d 28 d5 c9 3c 56 65 2b bc 60 ba 32 3e
       0.07263453 0.024637774 -0.010461172 0.17453909
0002e0 67 10 06 bd 2f 4a 64 3c 34 29 2b be b2 c4 15 3e
       -0.032730486 0.013933702 -0.16714936 0.14625815
0002f0 b8 7e 2f 3e f3 67 09 bb 31 d8 f9 3d f8 41 09 3d
       0.17138183 -0.00209665 0.12199438 0.03351018
000300 c2 3c 48 be 89 c0 45 be d1 5b c2 bd c0 31 87 3d
       -0.19554427 -0.19311728 -0.09490169 0.06601286
000310 1c ff 9f 3d a6 c5 19 be 52 05 02 bd 88 de da 3d
       0.0781233 -0.15016803 -0.031743355 0.10686976
000320 f7 2d 99 bd 2d 1b 4f 3e 08 eb 5e bd 2d 7c 5d bd
       -0.0747947 0.2022521 -0.054423362 -0.0540735
000330 f3 7d ff 3d 20 80 5a 3e 26 56 ba ba eb cf 4c bd
       0.12475195 0.21337938 -0.0014216348 -0.050002974
000340 64 8b 93 bc e6 88 71 3d 4b 89 96 3d e0 4a 12 3e
       -0.018010803 0.058968447 0.07350405 0.14286375
000350 8d 51 e7 bd bb 00 46 3d d7 f1 f6 bd 7a 41 93 bd
       -0.112948515 0.04834054 -0.12057846 -0.07190223
000360 97 9d 3a 3e 15 89 42 3d 75 e6 7e bd 97 0d a9 3c
       0.18224178 0.047494013 -0.0622315 0.020636363
000370 ea 68 b3 bd 2e 0b 43 3c 8f e0 3b 3e 7f e7 ce bd
       -0.08760245 0.011904521 0.18347381 -0.10102748
000380 3b a6 b5 bd 0f 08 4e 3e 90 fc e2 bd ee c3 b1 bd
       -0.088695966 0.20120262 -0.11083329 -0.08679949
000390 02 13 29 be 20 d5 b8 3d af 4f 01 bd 5f 69 d9 bd
       -0.16511157 0.09025025 -0.031570133 -0.10615801
0003a0 e5 c2 cb bd 68 84 25 bd 8a c1 ae 3b 1c e2 83 bc
       -0.099492826 -0.040409476 0.0053331302 -0.016099028
0003b0 5c f2 36 3b 2e da 21 be 0c b6 95 3d 3a 6a 1c 3d
       0.0027915454 -0.15805885 0.07310113 0.038187243
0003c0 7c b6 52 3d c0 87 88 bc aa c2 64 3e 43 71 c0 bd
       0.051443562 -0.016666293 0.22339883 -0.09396603
0003d0 0b c7 35 bd 40 7f c6 bd 86 b7 aa bc 8e 5f 2e 3d
       -0.044379275 -0.0969224 -0.020839464 0.042571597
0003e0 4d a4 87 3d 7e 66 09 be 10 86 5e be 44 55 70 3d
       0.06623135 -0.13418004 -0.21730828 0.058675066
0003f0 65 d8 d5 bd 99 b9 7e 3d 57 2a 0b bd bc f7 97 3d
       -0.104416646 0.06218872 -0.033975925 0.074202985

bias f4 [10]
000000 5c c8 72 bd 9b 05 08 3e 3c 19 e3 bc ca 58 9b bd
       -0.05927311 0.13283388 -0.027721994 -0.075852945
000010 46 24 21 bb 44 2d de 3d f7 61 2a be bf c2 ae bd
       -0.002458827 0.108484775 -0.16638933 -0.085332386
000020 5f cf ed bd 15 89 ee bd
       -0.116118185 -0.1164724

weight f4 [10, 10, 3, 3]
000000 3a e3 d1 3d 2a ac 20 bc 1c 12 b5 3c 2c 27 1c bc
       0.10248418 -0.009806672 0.022103362 -0.009530824
000010 5e 9b c8 b7 78 c0 f5 3d f8 59 01 3e 4c f4 00 3e
       -2.3914206e-05 0.11999601 0.12631977 0.12593192
000020 a3 4e fc 3c 58 a1 4f 3d 75 04 e4 bc de b4 fd bc
       0.030799216 0.05069098 -0.027834157 -0.030970033
000030 c2 e9 cb 3d 6a 69 c1 bb 5d c4 5e bd 8f 00 3b bd
       0.09956695 -0.005902459 -0.054386485 -0.04565483
000040 28 db e2 bc f4 91 28 bc 44 c6 3e 3d ce 9d 5d 3d
       -0.027692392 -0.010288704 0.0465758 0.054105572
000050 6a 7d 11 3d fe 8c 4e 3b 6f f7 1a 3d d3 85 b9 3d
       0.035519995 0.0031517143 0.037833627 0.09058728
000060 52 86 a1 bd 35 cf 04 bd 0e 11 17 bd bd f8 ae bc
       -0.07886948 -0.03242417 -0.0368815 -0.021358842
000070 fb c0 13 bd f4 b2 36 3d 0f 32 2a bd 0e ba 9d 3c
       -0.036072712 0.044604257 -0.041551646 0.019253757
000080 ad d3 fc 3d e3 a2 e7 bc 49 bb 31 3d 49 d7 8d 3d
       0.123450615 -0.028275913 0.0433915 0.06925828
000090 d3 d9 73 bd 5f f3 82 3c f5 73 6d 3d 40 47 32 3c
       -0.059533905 0.015985189 0.057971913 0.010881245
0000a0 83 7b 6b 3d 43 26 83 3c b8 b4 ba 3d e8 df dc 3c
       0.057490837 0.016009456 0.091165006 0.026962236
0000b0 02 06 21 bc 7b 3b 41 3b b9 d3 99 3c 3c c2 7f bd
       -0.0098280925 0.0029484916 0.018777715 -0.062441096
0000c0 2a 6b 87 bc 7d 67 88 bd dc f1 cf bd 61 df a3 3c
       -0.016530592 -0.06660364 -0.10153553 0.020003976
0000d0 e0 cb c1 bc db 49 d0 bd 46 54 98 bd 55 ec 15 3b
       -0.023656785 -0.10170337 -0.07437949 0.002287646
0000e0 c7 fe 50 3d 7f 87 d2 3d 8f b6 bc b8 e4 be ce 3d
       0.051024225 0.1027975 -8.998543e-05 0.10095003
0000f0 02 2f e8 3c 5f bd 5a bd 00 0d 54 bd fa 08 ac bd
       0.028342728 -0.053403255 -0.05177021 -0.0840015
000100 8c e7 d4 bd ba 36 c9 bc d2 8d bb bd e7 66 8a 3d
       -0.103957266 -0.024562228 -0.091579095 0.06757908
000110 b8 b8 6f bd 21 16 a4 3d ff 8e ff 3b c5 9b af bd
       -0.05852577 0.08012033 0.007799029 -0.085746326
000120 32 6e f6 bc a6 33 af 3c 47 dd 08 be eb 74 94 bc
       -0.030081842 0.021386933 -0.1336566 -0.018122157
000130 19 da f4 b9 10 47 14 be 4a 3c d8 bc 3c f3 00 be
       -0.00046701802 -0.14480233 -0.026395936 -0.12592787
000140 59 d8 06 be ca ba ec 3c bb 2a 92 bd 77 89 08 bd
       -0.13168468 0.028897662 -0.071370564 -0.03333422
000150 c2 1a 74 3d 77 29 a1 bd ab ca 19 bc 03 ea 53 3c
       0.05959583 -0.07869237 -0.009386699 0.012934211
000160 58 31 5c 3c 8a 2c 42 3d 8b ec a5 3d 27 1d 0f 3e
       0.013439499 0.047405757 0.081017576 0.13975964
000170 e2 39 ba 3d e3 42 9c 3d e4 cd 21 bd 22 42 1c 3e
       0.090930715 0.07629945 -0.039502993 0.15259603
000180 04 9f aa 3d 69 70 17 3e 28 b7 cf 3d 04 0e 91 3c
       0.08331111 0.14788975 0.10142356 0.017706878
000190 75 76 0d 3d 8f a8 cf 3c ba a7 81 3d 90 c9 31 3d
       0.034536798 0.02534893 0.063308194 0.043405116
0001a0 8b 4b c4 3d a6 65 47 bd c9 de 6c 3b 20 e0 b8 bd
       0.09584721 -0.048680924 0.0036143532 -0.090271235
0001b0 82 8a b2 3d 03 5c a9 3d 9f 2c cd 3d 0c bc 50 3d
       0.087178245 0.08269503 0.100182764 0.050960585
0001c0 e5 20 c6 3c 3f 5a 77 bd 07 2a 82 3d e6 20 bf bc
       0.024185607 -0.0603888 0.06355672 -0.023331117
0001d0 a9 2d 10 3c 7f 3a 66 3b 0b e1 37 bd a8 3b af 3d
       0.008799949 0.0035130081 -0.044892352 0.085563004
0001e0 b6 60 ad 3d 88 e3 27 3c d7 04 2c 3d a0 5d ba 3b
       0.08465712 0.010247119 0.041996803 0.0056874305
0001f0 4f fe 83 bd 67 38 f7 bc b6 80 a8 bc 08 2a 85 3d
       -0.0644499 -0.030178262 -0.020569187 0.065021574
000200 65 2e 58 bd b6 b3 eb 3c 07 02 07 3e 1b aa 07 3c
       -0.05277862 0.028772216 0.13184367 0.008280302
000210 a9 41 de 3d 8c 12 05 bd d6 3d 14 3d 5f 51 67 3d
       0.108523674 -0.03248839 0.036191784 0.056474086
000220 f8 e1 2e bd 79 53 75 3b c5 d1 90 bd 44 53 a6 bd
       -0.04269597 0.0037433787 -0.0707126 -0.081213504
000230 73 58 a5 bd dd 6d 89 bd 37 3c d8 bd b8 e9 d8 bd
       -0.08073511 -0.06710408 -0.1055836 -0.10591453
000240 3d 52 0c 3d 7a ef 8a bd d7 f5 0a 3d 8e cb 04 bd
       0.034258116 -0.06783958 0.033925857 -0.032420687
000250 1b 83 d3 3d c7 39 d6 3c 73 f1 fd 3c ad 66 c0 3d
       0.10327741 0.026150597 0.030998921 0.09394584
000260 b3 f9 a1 3d 13 03 a2 3d cb f0 49 bd 4d 89 9c bd
       0.079089545 0.079107426 -0.049301904 -0.076433755
000270 d5 35 a3 3d 99 36 e4 3c a0 7c 07 3c fe b9 b4 3d
       0.07969252 0.027858065 0.008269459 0.08824538
000280 a3 70 36 3c 3e 18 db bc 62 38 0c 3d 04 5b 99 bd
       0.011135253 -0.026744958 0.03423346 -0.07488063
000290 ca 41 c7 bd 61 89 a0 bd 6a b6 92 b9 59 86 b1 3c
       -0.09729345 -0.07838703 -0.000279832 0.021670507
0002a0 6c 7d c7 bc f0 cf 0b be 5f 40 0c be 34 2d bb bd
       -0.024351798 -0.1365354 -0.1369643 -0.09139481
0002b0 4e 8b 5d 3d 9a b0 61 3d 3a 53 81 3d da 79 0e bb
       0.05408793 0.05510006 0.06314702 -0.002174011
0002c0 cf 83 98 bc 3c 9c 25 3d 34 b4 d5 bc 1d c0 8b 3d
       -0.018617539 0.0404322 -0.026086904 0.06823752
0002d0 8f 61 83 3d 8b ff b0 3d 21 a1 08 3c d2 59 ba 3c
       0.06415092 0.08642491 0.008339197 0.022747908
0002e0 17 c8 14 bd ca 28 a5 bc 64 03 1a 3d 50 df 1d bc
       -0.036323633 -0.020161051 0.03760089 -0.009635761
0002f0 e6 a8 b0 3b 35 0f c7 3b de a5 4e 3c 3b c5 dc bd
       0.005391228 0.006074811 0.012612788 -0.10779806
000300 dd 17 0f bc 94 c2 2a 3d 21 78 98 bd 2a c5 2d 3c
       -0.008733717 0.04168947 -0.07444788 0.01060609
000310 5a 8a 17 bc d1 6d 09 3d bc b6 84 3d 6b ed df 3c
       -0.009249294 0.033551995 0.06480166 0.02733489
000320 e0 02 35 3c 36 1a a5 3d be 6d 8f bc 66 3a 80 bd
       0.011048049 0.0806164 -0.017508384 -0.062611386
000330 45 8e ae bc 55 4b 88 3d ee 5f 18 bd e2 9e 98 3a
       -0.021308074 0.066549934 -0.03720086 0.001164403
000340 67 c7 e6 bb 67 39 5e bb b6 49 98 3d 72 b2 7c 3d
       -0.0070428136 -0.0033908726 0.07435934 0.061693616
000350 27 90 32 bd a1 30 34 3d 0e 16 c7 bd bc 5b 8f bd
       -0.043594506 0.04399169 -0.097210035 -0.06999919
000360 1b cb 30 3b 4c fa 69 3d af c1 b2 bd 59 27 1f bb
       0.002697653 0.057123467 -0.087283485 -0.0024284928
000370 26 06 81 3d fc 45 93 3c 7c 89 a0 3c 5b ab 09 3d
       0.06300001 0.017977707 0.019596808 0.033610683
000380 cb bc da 3d e3 1e b5 3d 33 ed c0 bb b1 0d 61 ba
       0.10680541 0.08843782 -0.0058876514 -0.0008585109
000390 f3 69 8c 3d a0 5b c2 3b 80 fd 95 bc ce 5c 44 3d
       0.06856146 0.0059313327 -0.018309355 0.047940068
0003a0 1e 00 8e bd 00 cd db 3c ba 72 b0 3d be 4a 4a 3d
       -0.06933616 0.02683115 0.08615632 0.049387686
0003b0 d6 4d aa 3d d8 2e cf 3c 5b 5e 8f 3d ef d4 b8 bc
       0.08315627 0.025290892 0.07000419 -0.022562472
0003c0 f8 cf aa 3a ca 7d d0 3d 9d d2 80 3d c4 5b 82 3d
       0.001303195 0.10180242 0.06290171 0.06365159
0003d0 d1 96 8e 3d e7 aa 34 bd 6c 3f 67 3d ce c0 88 bc
       0.0696236 -0.044108298 0.05645697 -0.016693499
0003e0 08 b1 2d 3d 15 88 9d 3d 38 31 ce 3c db ab 67 bc
       0.04240516 0.07691971 0.025169954 -0.014140095
0003f0 21 c9 49 bc c8 6b d3 bd ac 06 7f bd c4 99 89 bd
       -0.012316019 -0.10323292 -0.062262222 -0.067187816

bias f4 [10]
000000 32 fc ac 3d 03 dc 95 bd ed 6e 2f bd bb f2 6d 3d
       0.0844654 -0.073173545 -0.042830396 0.058092814
000010 d4 a1 b3 bd 13 17 bc 3d 3a d8 65 3d 05 5c 22 3c
       -0.08771101 0.091840886 0.056114413 0.0099096345
000020 29 da 6d bd 56 f0 d4 3b
       -0.058069382 0.006498377

weight f4 [10, 10, 3, 3]
000000 33 17 f2 bd a5 69 0d be 60 db cd 3c ac fe ad bd
       -0.11820831 -0.13809831 0.02512902 -0.084958404
000010 f1 25 8c bd 61 23 05 be 1b 86 06 be 9e c7 18 3d
       -0.06843174 -0.13001777 -0.13137095 0.037299745
000020 38 bb 0c be 23 58 31 3d 65 54 ca bc 3a 54 bf 3d
       -0.13743293 0.043296944 -0.024698446 0.09342237
000030 84 e7 9c 3d 34 50 ae 3d 03 af 93 bd 3e 69 0b 3c
       0.076613456 0.08511391 -0.07211115 0.008508978
000040 00 72 99 bd 59 ef 13 3d 98 2f dc 3d 63 14 b0 3c
       -0.07492447 0.03611693 0.10751265 0.021494096
000050 bf 06 1b bd f5 8f e6 bb 39 8b 65 bd f5 61 99 bd
       -0.03784823 -0.007036204 -0.056040976 -0.07489387
000060 a6 2c 41 3d 29 fc 19 bd fc 0c e4 bd 37 d9 10 bc
       0.04716172 -0.037593994 -0.11135289 -0.008840851
000070 7e 2c d6 3b 7a 2c bf bc 6a 55 e1 3b db 69 b7 bd
       0.0065360656 -0.023336638 0.006876637 -0.08955737
000080 20 78 bb 3c 2a 88 02 3d 6f e1 68 3d db ab 33 bd
       0.022884429 0.031868137 0.056855615 -0.043865066
000090 7f 67 ee 3a 53 ba a2 bd b4 a5 a0 bd 1f 1c 4c 3b
       0.0018188803 -0.07945695 -0.07844105 0.0031144691
0000a0 65 cf 26 bd 24 e7 ca bc e9 24 0a bc 10 68 60 3d
       -0.04072513 -0.02476842 -0.008431652 0.05478674
0000b0 d1 10 21 3d 73 1d e0 bd 1a 20 23 bd a3 20 ba bd
       0.039322678 -0.10943117 -0.039825536 -0.09088256
0000c0 56 2d 46 bc 3b 34 7d 3d 8f 35 cd bd ff b0 74 bd
       -0.01209577 0.06181739 -0.10019981 -0.05973911
0000d0 a5 ca de bd 90 04 ff bd 63 81 9a bd 3d de 4f 3d
       -0.10878495 -0.12452042 -0.0754421 0.050749052
0000e0 03 45 80 bd 91 b5 28 3c f1 5c 6c bd 62 e7 ec bd
       -0.06263163 0.010297195 -0.057705823 -0.1156757
0000f0 05 ac a9 bd 63 44 86 3c e1 ea c2 bd 38 b5 d3 bc
       -0.08284763 0.016390031 -0.09517456 -0.025843248
000100 bc eb 00 bc 15 3a df bc f5 01 ee bd 1c dd b2 bd
       -0.007868703 -0.027249375 -0.11621467 -0.087335795
000110 d4 66 06 3d 9a d0 d7 3d 37 cc ea bc 96 a4 84 3d
       0.03281291 0.105378345 -0.02866183 0.06476705
000120 a2 e5 ba 3d 3e e8 c4 bd 91 99 8f 3c d8 f7 34 3c
       0.0912583 -0.09614609 0.01752928 0.011045419
000130 46 76 89 bd b1 ae f0 3c aa 43 63 3c 66 a3 aa 3d
       -0.06712012 0.029380174 0.013871113 0.08331947
000140 95 38 c5 3d b4 70 9d bd 45 37 4b bc 36 06 52 3d
       0.09629933 -0.07687512 -0.012403314 0.051275454
000150 e4 a7 7e 3b 1e d6 38 3b 36 4e 5c bd 38 d8 0d 3c
       0.0038857395 0.0028203796 -0.053785525 0.008657508
000160 d6 f2 7e 3d 86 3c d4 3c 63 25 44 3c 9b ca d6 bd
       0.062243305 0.025907766 0.011971804 -0.10487863
000170 33 98 9f bd b9 81 8f bd d1 7b 12 bc 4b 03 53 3d
       -0.077927016 -0.070071645 -0.008940653 0.051516812
000180 72 6a 5c bd 1a ca c4 bd 09 de d4 bd 6d 16 13 bd
       -0.05381245 -0.0960886 -0.10393912 -0.03591006
000190 9e be 1d 3d 24 c4 16 3d 40 9e ff bc 61 24 54 bc
       0.038511865 0.036808148 -0.03120339 -0.0129481265
0001a0 09 5a 81 3d b4 be 44 bd 46 fb 2a bd 44 1b 7f bd
       0.06316001 -0.04803343 -0.04174354 -0.062281862
0001b0 09 82 14 bd 4b 8b 86 3d 2c 45 79 3d bd 6a 1a bd
       -0.036256824 0.06569537 0.060856983 -0.03769945
0001c0 cd 64 9e bd 8e 7e 8b 3d 2c 5a 20 bd 70 8b a6 bd
       -0.0773407 0.06811248 -0.039148495 -0.08132064
0001d0 9f 94 5d 3c 25 73 bb 3d 89 37 c4 bd db 9d 64 bd
       0.013524204 0.091528215 -0.09580905 -0.055814605
0001e0 40 98 38 bd f1 37 d9 bc 2b c4 2f 3d 01 51 5b 3d
       -0.045067072 -0.026515933 0.04291169 0.05354405
0001f0 12 e4 49 bd 4b 0c 87 bd fb 80 1b 3d 46 da 01 3d
       -0.04928977 -0.065941416 0.037964802 0.031702302
000200 93 6e cf bd 03 de 7a bc cd 4a cf bd 47 24 2d 3c
       -0.10128512 -0.015311721 -0.10121689 0.010567731
000210 cb 16 34 bc cf 79 f7 3c 81 1e e9 bc 6c 50 03 bd
       -0.010991762 0.03020945 -0.028456928 -0.03205912
000220 56 ab 99 3d 8a c0 d6 bc d3 2a b0 3d c1 d4 8d 3d
       0.07503383 -0.026214857 0.08601918 0.06925345
000230 c5 44 2f bc 9f 3c b9 3c 1a 62 c4 bd b2 f5 6d bd
       -0.010697548 0.022611914 -0.09589024 -0.05809564
000240 88 58 e9 bc 5e 14 8a 3d da 45 e5 3c 1e 3f d5 3d
       -0.028484598 0.06742166 0.02798741 0.10412429
000250 14 55 a7 bd 26 a2 8b bc 0a b8 b2 bd cf 08 ce 3d
       -0.08170524 -0.017045092 -0.08726509 0.10060274
000260 9f 02 16 3d a0 5a 17 3d 69 18 21 bd 70 36 23 bd
       0.036623593 0.03695166 -0.03932992 -0.039846838
000270 0d 41 85 bd 93 8d 39 bc 7b 58 c8 3c 9c bf b3 3d
       -0.06506548 -0.011325258 0.024456253 0.08776781
000280 f7 74 af bc f9 67 71 bc 62 5a 80 3c c7 ce 61 3d
       -0.021418078 -0.014734262 0.015668098 0.05512884
000290 37 fb f2 bc 8f e3 e2 3b 24 62 a6 3d 72 b6 9e 3d
       -0.029660804 0.0069240998 0.081241876 0.077496424
0002a0 43 35 88 3d 2f a7 0c 3d 3d b9 1f bd a8 5b b0 bc
       0.06650784 0.034339126 -0.038995016 -0.02152808
0002b0 39 49 e7 bb 13 bb 34 3b e2 bd cc bc 94 41 e9 3c
       -0.0070582894 0.0027577325 -0.024992887 0.028473653
0002c0 e1 6a 43 bd f8 65 17 bd 24 33 0a 3c a4 4f 0f 3c
       -0.04770935 -0.03696248 0.008435044 0.008747015
0002d0 b7 d4 91 bc 96 17 c5 3d 5f 5b 09 bb 08 19 a9 3d
       -0.017801626 0.09623639 -0.0020959002 0.082567275
0002e0 97 df 8c 3d 66 97 7d bd 7c 50 8e bd f9 44 42 3d
       0.06878584 -0.061911963 -0.06948945 0.04742906
0002f0 d6 b9 aa bd eb ac a9 3c f0 bb e3 bd 9c 65 83 3d
       -0.08336227 0.020712337 -0.111198306 0.06415865
000300 12 3f 28 3c df 6c 4c bd 97 dc b6 bd 96 f1 b6 3d
       0.010268943 -0.049908515 -0.08928793 0.089327976
000310 16 c2 2d bc 04 04 6b 3a 37 5c b1 bd e7 27 dc 3d
       -0.010605356 0.0008965137 -0.08660167 0.10749798
000320 5f f1 51 3d b0 06 2b bd 8c fe 8d bc a6 e0 62 3d
       0.05125558 -0.041754425 -0.017333291 0.055390023
000330 89 f5 61 bd fa 03 4f bd a0 1f ae bd 4c e7 ac 3d
       -0.0551658 -0.0505409 -0.08502126 0.08442554
000340 9b 90 c5 3d 59 96 11 39 7d 99 6f bd 2e 36 67 bd
       0.09646722 0.00013884286 -0.058495987 -0.056448154
000350 8e b7 70 3d e4 0d 22 bc 5c 4b f4 bc 7e b6 b1 bd
       0.0587688 -0.009891007 -0.02982109 -0.08677386
000360 bf 08 24 3d c8 74 1a 3d 5c b9 6d 3d 89 57 78 bd
       0.040047403 0.037709028 0.0580381 -0.060630355
000370 84 91 0e bd 73 3c 10 3d 15 c8 98 3d cd a2 d7 bd
       -0.034806743 0.0352139 0.074600376 -0.10529099
000380 29 af 91 bc 64 cf b3 bd ec 8a b9 3d ee e9 aa bd
       -0.017783718 -0.08779791 0.090597 -0.083454
000390 57 e5 e8 3d c3 86 ed 3d 92 c1 ba bd f2 c7 89 bd
       0.11371868 0.115979694 -0.09118952 -0.0672759
0003a0 88 99 5b bd c1 78 8c bd 93 ac ac bd f9 f0 b7 bd
       -0.053613216 -0.068589695 -0.084313534 -0.08981509
0003b0 8b 1e fc 3c 9f 21 ff 3c 60 d8 e2 bc 51 52 a8 3d
       0.030776283 0.031143961 -0.027691066 0.082188256
0003c0 ca c2 0b 3d 53 94 cd 3d 19 28 c3 3d df b0 e7 bd
       0.034121312 0.10038056 0.095291324 -0.11313032
0003d0 9f 4f 17 be 35 b3 08 3d c0 6f 0c be 43 76 68 bd
       -0.14776467 0.03337403 -0.13714504 -0.05675341
0003e0 1d 1c 18 be a7 67 90 bd 80 19 0b be 4c a3 38 3c
       -0.14854474 -0.0705102 -0.13583946 0.011269402
0003f0 71 8f 5f bc 98 05 21 3d e8 e9 8b 3d f4 60 6d bd
       -0.013645039 0.039311975 0.068317235 -0.05795379

bias f4 [10]
000000 20 17 70 3d 5f 78 c0 bd 41 d9 6d 3d df bc 55 3d
       0.058615804 -0.09397959 0.058068518 0.052182075
000010 69 40 07 3d f4 bb 15 bd a6 67 9d 3c 4d b9 b5 bd
       0.03302041 -0.0365562 0.019214462 -0.08873234
000020 f6 03 81 bd 79 df 2a 3d
       -0.062995836 0.041717026

weight f4 [10, 10, 3, 3]
000000 f6 57 ab bd 04 af d5 bd 7d f0 d4 bd 41 5e 60 bd
       -0.083663866 -0.10433772 -0.10397432 -0.054777388
000010 25 3d c3 3d 7c 37 bf bd 4a 62 dd bc 2a 12 fd bc
       0.09533147 -0.09336755 -0.027024407 -0.03089245
000020 6d 4d 93 bd ef 48 90 bc 87 1b be 3d dc 85 9a 3d
       -0.07192502 -0.017612902 0.09282594 0.07545063
000030 5c 22 d7 3c 09 f8 c3 bd 71 d7 d4 3c eb 5d 86 bd
       0.026261501 -0.09568793 0.025981637 -0.06560882
000040 e5 03 7c bd 48 23 9f 3c 8c 09 20 3d 5f 2a d5 bd
       -0.06152715 0.019426003 0.039071605 -0.10408472
000050 77 b3 65 3d 8f 5f 87 bc 51 19 88 bc 71 66 59 3d
       0.056079354 -0.016525058 -0.016613634 0.05307621
000060 4a ba b6 3d 95 b0 57 3c b7 73 14 3d 4e eb e6 3c
       0.089222506 0.013164659 0.036243167 0.028188374
000070 e7 11 83 bc b0 11 c1 3c a0 9f cf 3d 32 bc 93 3d
       -0.015999747 0.023568004 0.10137868 0.0721363
000080 55 23 44 3d 46 9b 8b bc 93 16 b6 3d 93 08 90 3d
       0.047885258 -0.017041814 0.088910244 0.070328854
000090 ab c9 d2 3d 66 8e c6 bc a5 68 97 bd 45 09 ce bd
       0.10292371 -0.024237823 -0.07393006 -0.10060362
0000a0 73 99 a0 3d 5c 9f 22 3d 5a e1 71 bc d0 65 b1 bd
       0.07841768 0.03970276 -0.014763201 -0.08661997
0000b0 f1 74 e9 ba 15 74 b2 3d e7 09 20 3d 38 2b 94 bd
       -0.001781134 0.08713547 0.039071944 -0.07234806
0000c0 c6 9a dc 3c a3 dd 97 3d ae b5 5d 3d 06 1c 58 bd
       0.02692927 0.07415321 0.05412834 -0.0527611
0000d0 a0 b3 5a bd 51 8d 84 bd 58 b2 88 3d 84 12 69 bd
       -0.05339396 -0.064722665 0.06674641 -0.056902424
0000e0 da ba 6d 3d d0 5c 37 3d 41 32 83 bd be 47 b3 3c
       0.058039524 0.044766247 -0.064060695 0.021884795
0000f0 82 40 1d bd e6 af 1f bd db a6 88 bc 43 26 71 3d
       -0.038391598 -0.03898611 -0.016681125 0.05887438
000100 f4 c7 29 3d 67 8f b4 3d 7b a6 18 bd fb c7 98 bd
       0.041450456 0.08816414 -0.037268143 -0.07460018
000110 02 36 d2 3c 05 06 56 bd 73 5e d6 3d 86 28 27 3c
       0.025660519 -0.052251834 0.104672335 0.010202533
000120 06 d2 dd bc bd cb bc bd 4f 4c 45 bd 3e a6 88 bd
       -0.027077686 -0.092185475 -0.048168477 -0.06672333
000130 a0 3d 15 bd 89 8e 1f bd 81 58 d4 bc dc 1a d4 3d
       -0.036435723 -0.03895429 -0.025921108 0.103566855
000140 b0 7e 34 3d 62 97 8e bc 4b 85 0f bd a8 f9 23 3c
       0.04406613 -0.01740617 -0.035039227 0.010008253
000150 ea 90 0e bd 1a 0a ae 3d a7 c9 60 bd 7b 94 71 bd
       -0.03480617 0.084980205 -0.05487981 -0.058979493
000160 c2 96 f4 bc 8a c2 fd 3c cc 7e 5b bd 0c e5 06 be
       -0.029857043 0.030976553 -0.05358772 -0.13173312
000170 3c 8b fb bc 58 aa 62 3d a7 cb e1 3b e6 a0 e3 bc
       -0.03070604 0.055338234 0.0068907323 -0.027786683
000180 4e ba 70 bd 3f c5 7b 3c 14 27 0e bd 1e 39 1b 3d
       -0.058771424 0.015366851 -0.034705237 0.037896268
000190 e2 ce c7 3d 5e 2a d5 3d 16 f2 b0 3d de 67 bf 3d
       0.09756257 0.104084715 0.08639924 0.09345983
0001a0 e8 41 35 bd 50 3c c2 3d 7f e5 c0 3d 86 8c 32 bd
       -0.044252306 0.0948416 0.09418773 -0.043591045
0001b0 ef 8d a8 bd ee e1 99 bd 51 63 69 3b 18 26 9e 3c
       -0.08230197 -0.07513796 0.0035612176 0.019305274
0001c0 a1 39 28 3d 11 0b 65 3d 9b 54 e1 bd 96 52 c4 bc
       0.041070584 0.055918757 -0.11002465 -0.023965161
0001d0 a0 c5 c8 bd 5c 38 9c bd c6 53 72 3d 91 6e 0a bd
       -0.09803319 -0.07627937 0.059161924 -0.03379685
0001e0 00 7d 0e 3d 9d f5 06 3b 13 4d 59 bd 17 04 80 3d
       0.034787178 0.0020593174 -0.05305202 0.0625078
0001f0 95 ce 04 be 43 59 01 3d e8 24 af 3d 75 2d 25 bd
       -0.1296943 0.031579267 0.08551961 -0.040326554
000200 7a ef 6b 3d 6c 75 97 3d ca 0b b9 3c a1 3e 48 bb
       0.05760143 0.07395443 0.02258863 -0.0030554908
000210 8f e8 5e 3d 79 85 95 3c 52 8a 5a bd 78 f8 8c 3d
       0.054421004 0.018252121 -0.05335457 0.06883329
000220 5a 3b c1 3d 83 ce a8 bc 58 59 e2 ba 99 44 df 3d
       0.094351485 -0.020606285 -0.0017269058 0.10901756
000230 2e d5 b5 3d 92 b8 b4 3d a0 f3 03 bd 14 1c 9b bc
       0.088785514 0.088242665 -0.03221476 -0.018934287
000240 f7 de be bd 6e 93 dc bd b2 96 19 bd bd 67 75 bd
       -0.09319871 -0.107703075 -0.03749723 -0.059913386
000250 35 08 38 bb 7a 22 22 3c 11 13 8f bc 65 11 35 3d
       -0.0028081064 0.009895915 -0.017465146 0.04420604
000260 c1 18 95 3d fc f4 50 3c aa 26 96 bd af ff 87 3c
       0.07280112 0.012753721 -0.07331593 0.016601412
000270 80 46 3c bd 9d d3 ca bd 4e 36 95 3c 6b f4 69 bd
       -0.04596567 -0.09903643 0.018214371 -0.05711786
000280 65 d2 70 3c b8 fb 97 bc 37 b7 b6 3d 8a a0 a5 3b
       0.014698599 -0.018552646 0.08921664 0.005054538
000290 8a 8f b1 bd 51 5a 79 3d 6b 28 89 3d 52 1d d2 bd
       -0.08669956 0.060877148 0.06697162 -0.10259499
0002a0 38 43 b4 3d 7e 0a bd 3d 00 af b7 3d 2f 34 98 bd
       0.088018835 0.09230517 0.089689255 -0.07431828
0002b0 52 5e 60 3d 89 db 24 3d 76 55 77 bc f6 16 e0 3b
       0.05477745 0.040248428 -0.015096059 0.0068386747
0002c0 c8 10 2d 3d 54 5f 5d 3c 40 db 01 be 5a 76 5e 3d
       0.042252332 0.0135114975 -0.12681293 0.054312088
0002d0 8b 8b 9f 3d bc ff 58 3b 7c ab da bb 93 e1 b8 3c
       0.077902876 0.0033111414 -0.0066732746 0.0225685
0002e0 18 f9 50 bd 0c 3e 13 3d 4c 9d 86 bd f2 5a 80 3d
       -0.051018804 0.035947844 -0.06572971 0.062673464
0002f0 4c a0 93 3d cc 56 c5 bd d7 ca 24 bc e9 ad 9c 3d
       0.072083086 -0.09635696 -0.010058126 0.07650358
000300 54 3b a0 3c 4e b8 bd bd 03 02 00 bd b4 6b cd 3c
       0.01955954 -0.09263669 -0.03125192 0.02507577
000310 37 56 2d 3d 87 4f a1 bc 70 6f 24 3d 62 1b b7 3d
       0.04231855 -0.019691242 0.040145338 0.0894077
000320 1d ec 65 3b 7a b8 82 bd 36 28 cd bd bd fb d0 3c
       0.0035083361 -0.06382842 -0.10017435 0.025510663
000330 0a bc b3 3d 32 82 58 bd c5 67 5b bd f8 4e 71 bd
       0.087761 -0.05285854 -0.05356576 -0.0589132
000340 41 ca ba bd b0 e6 35 3b 07 45 b4 bd 7c d6 9b 3d
       -0.09120608 0.0027755909 -0.088022284 0.07609269
000350 0f 91 5e bc 06 95 80 3d 47 50 6c bd 9a eb c9 bd
       -0.013584389 0.06278424 -0.057693746 -0.098593906
000360 47 2d 8b 3b 0b 0f 84 bc 2c a8 64 3d aa 80 d0 bd
       0.004247341 -0.016120454 0.055824444 -0.10180791
000370 5c cd 5d bd 54 2c e4 3b 3d 3d b1 3d 7a 92 75 bd
       -0.054150924 0.006963292 0.086542584 -0.059954144
000380 5f e3 6a 3d 9b 86 d7 3d 90 bd b6 3d b1 33 ba bd
       0.057345744 0.10523721 0.08922875 -0.090918906
000390 17 1d 37 bd 8e 64 88 bd 8c 4b cb 3d 2e b5 43 3c
       -0.044705477 -0.06659804 0.09926519 0.011945052
0003a0 24 fa d3 3d fa e3 12 bd b2 d7 f8 bb e0 1e fd 3b
       0.10350445 -0.035861947 -0.0075940723 0.007724628
0003b0 16 8d 93 bd f0 a3 2a 3d 09 bf 1e 3d ec 49 2d bd
       -0.072046444 0.04166025 0.038756404 -0.042306826
0003c0 a7 cc d1 3c 19 ed 2c bd bd c5 ea bb 7c 9a b1 bd
       0.025610281 -0.0422183 -0.0071646855 -0.08672044
0003d0 b7 24 97 bd 1c a6 a6 bd 92 d0 61 bd f0 d5 1e bc
       -0.0738005 -0.081371516 -0.05513055 -0.009694561
0003e0 f2 a5 b7 bd 26 87 35 3a fb e7 91 bc 54 d7 8b bc
       -0.089671984 0.0006924741 -0.017810812 -0.01707045
0003f0 9d 2d ba 3d 02 ad b3 3d c6 e7 e4 3c c2 78 36 bd
       0.09090731 0.08773233 0.02794255 -0.044548757

bias f4 [10]
000000 3a 09 a8 bd 18 a9 8b 3d 7d 92 b8 bd 67 62 88 3d
       -0.08204885 0.068193614 -0.090123154 0.06659394
000010 ba 2c ee bd d5 e0 60 3d 20 eb 5b bd ed 16 9c bd
       -0.11629625 0.054901917 -0.05369103 -0.0762156
000020 0f d8 dc bc 84 25 77 bd
       -0.026958494 -0.060338512

weight f4 [3, 28090]
000000 7a 24 99 3b 8c aa 2d bb ac 22 7b 3b 9c 2e bf b8
       0.004673538 -0.002649936 0.0038320227 -9.1162714e-05
000010 61 f5 d9 ba 34 a5 6f 3b 20 ca e7 3a 6a d1 8a 3b
       -0.0016628915 0.0036566975 0.0017684139 0.00423639
000020 78 b1 8d bb 59 a2 a3 bb 93 fa cc 3a a3 91 c5 3a
       -0.0043241344 -0.0049937186 0.0015638642 0.001507331
000030 82 48 54 3b 66 1b 77 3a 67 4a 81 3b cc 97 7d bb
       0.003239185 0.0009426385 0.003945637 -0.0038695214
000040 1f 81 7b 3a 81 75 ac ba 10 af 9f ba 6a 20 8d ba
       0.00095941307 -0.0013157577 -0.001218291 -0.0010767106
000050 92 e1 9c bb 55 1f a2 bb 26 9c 1e bb d5 05 51 bb
       -0.0047876323 -0.0049475827 -0.0024201958 -0.0031894345
000060 a0 df 9b 3a 87 46 a7 bb 28 4c e3 3a 18 07 1f 3b
       0.0011892207 -0.005104843 0.0017341422 0.0024265703
000070 ad f6 69 bb ab 48 bd 3a fe 62 c6 b8 0d ed 13 bb
       -0.0035700009 0.0014441212 -9.4598145e-05 -0.0022571713
000080 95 e0 ab bb c5 bf 55 ba e9 07 07 3b e2 94 3a bb
       -0.005245278 -0.0008153881 0.002060408 -0.0028470089
000090 a3 2e 2f bb bc 4e 76 3b 34 f6 9b ba 8c 50 a4 39
       -0.0026730679 0.003758355 -0.0011898936 0.0003134053
0000a0 fa cf 04 bb 7d 4c b6 3b 81 59 a8 3b c4 01 b7 3b
       -0.0020265565 0.0055633173 0.005137623 0.0055849273
0000b0 aa d0 81 bb a4 91 7d bb af 25 12 ba ae 2f 19 3a
       -0.0039616423 -0.0038691545 -0.00055750733 0.00058435916
0000c0 06 3f 3c 3b 99 58 20 bb 5f 49 ad 3b 5a fc b4 bb
       0.0028724088 -0.002446687 0.0052882875 -0.0055232467
0000d0 aa 9c 9f 3a 44 0d 90 b9 b9 fe 52 bb 69 bc 50 3b
       0.0012177427 -0.00027475704 -0.0032195284 0.0031850582
0000e0 ba a1 62 bb c5 35 5b 3b f6 ee 6f 3b fb ad 7d bb
       -0.003458126 0.0033448797 0.0036610938 -0.0038708437
0000f0 79 31 00 3a 44 12 10 bb 70 72 9f 3b 55 c6 0d bb
       0.00048901845 -0.0021983543 0.004865937 -0.0021633108
000100 85 11 c3 3b 77 b4 b7 3b 78 3b c6 b9 ff 41 98 3b
       0.005953016 0.00560623 -0.0003780981 0.004646539
000110 8a ce 6f 3b 0f 72 26 bb 14 4b ab 3a 4a 19 02 3b
       0.0036591613 -0.0025397574 0.001306864 0.00198515
000120 0e b9 07 3a 33 98 84 39 90 1f f6 b9 ed c9 d8 ba
       0.00051774166 0.000252904 -0.00046944292 -0.0016539671
000130 2c 47 79 3b f8 60 a1 bb 7b a7 7f bb 91 9d a2 bb
       0.0038036807 -0.0049248897 -0.0039009738 -0.004962631
000140 de 44 b0 3b 94 99 1c bb d3 43 90 3a 42 af 9e 3b
       0.0053793034 -0.002389525 0.0011006541 0.0048426697
000150 f7 41 ac 3b 75 59 96 ba 69 a9 a1 bb a3 ed 2d 39
       0.005256887 -0.0011470752 -0.0049335253 0.00016587092
000160 bc 8f 8f bb cc 40 36 3a 57 28 5f bb 60 02 b2 bb
       -0.004381148 0.00069524045 -0.0034051144 -0.005432412
000170 e7 4a bb 3b 5c 94 aa 38 15 f9 a5 ba 5e f4 39 bb
       0.005715716 8.133866e-05 -0.0012662733 -0.0028374414
000180 90 55 a1 3b 6b 29 88 3b 55 c8 be bb a1 22 77 3b
       0.00492353 0.004155328 -0.0058222213 0.003770985
000190 bc b6 9d 3b e5 e0 0d bb 9e 14 7e 3b 8a ea a8 ba
       0.0048130434 -0.002164894 0.0038769613 -0.0012887281
0001a0 a9 7c 2b 3b c0 c6 57 3b ce f5 b3 3a 94 79 1e 3b
       0.0026166833 0.003292486 0.0013729872 0.0024181353
0001b0 dc df 45 3b 43 eb 42 ba d9 1b 99 3a 3d 5d 9e bb
       0.0030193245 -0.00074355694 0.0011681273 -0.004832892
0001c0 8e 80 c0 39 ae bf ad bb 45 66 6f 3b 97 13 75 3a
       0.00036716874 -0.005302391 0.0036529463 0.00093489274
0001d0 ab 0f 9c 3a 5a 05 7b ba d2 79 e9 ba a5 5c a2 3b
       0.0011906525 -0.00095756876 -0.0017812795 0.0049548917
0001e0 4d d0 11 3b 41 90 4e 3b 70 a9 77 3b 9e 5a 48 ba
       0.00222494 0.0031519087 0.0037790202 -0.00076428975
0001f0 10 63 a4 bb b9 f0 33 3a a7 d9 a7 3a a9 cc ab bb
       -0.005016692 0.00068641786 0.0012805954 -0.0052429033
000200 0b 36 ab 3b b2 e6 88 bb d5 23 83 bb 28 1f 96 3b
       0.0052249483 -0.0041778916 -0.0040020742 0.004581351
000210 99 eb 30 bb 6a b2 54 3b 6e d8 a0 3b ed f7 bb bb
       -0.0026995896 0.0032454976 0.004908613 -0.005736342
000220 4c 8e b2 3b ac b7 7d 3b 73 b4 c8 ba 6d 6b 82 3b
       0.005449092 0.0038714213 -0.0015312567 0.0039800913
000230 15 f9 98 3b c5 88 8d 3b 32 a7 c2 35 29 3e 09 bb
       0.0046683648 0.0043192827 1.4502787e-06 -0.0020941591
000240 8e 60 e8 3a 16 e2 6f bb 51 de a6 ba 2c 8d be 3b
       0.0017728971 -0.0036603264 -0.001273105 0.005815169
000250 d7 73 f3 39 fa a1 ab 3b 63 0f 7a b9 36 bd c1 ba
       0.0004643488 0.005237815 -0.0002384759 -0.0014781121
000260 ae 75 20 3a 21 7a 31 ba c0 07 e8 39 47 a0 9a bb
       0.0006121051 -0.0006770213 0.00044256262 -0.0047188136
000270 11 65 f1 b9 07 47 14 bb a2 fc a3 bb 12 dd 6c b8
       -0.00046042402 -0.0022625343 -0.0050044814 -5.6472672e-05
000280 42 b4 bd bb 85 da 41 3a af 06 e5 3a 12 cf e0 39
       -0.0057893107 0.00073949277 0.0017473305 0.0004287889
000290 ee 8f 7a 3a 2f 35 b5 3a 35 22 8b bb 13 17 7e 3a
       0.00095581904 0.0013825054 -0.004246021 0.00096927694
0002a0 31 7c 42 3a d6 c2 60 3b 35 fd 89 3b 8a 59 28 3b
       0.00074190187 0.0034295819 0.004211093 0.0025688135
0002b0 42 29 69 bb 46 bf e2 3a 82 db 49 3b 6f 5d da ba
       -0.003557757 0.0017299436 0.0030801003 -0.0016659925
0002c0 55 b3 4a 3b 33 1f 5f bb ac 4a 21 3b 88 82 a4 3b
       0.0030929644 -0.0034045696 0.0024611158 0.0050204434
0002d0 1b f2 58 3b a0 21 75 3a 52 ee 0c 39 09 4f a7 bb
       0.003310329 0.0009351019 0.00013440222 -0.0051058573
0002e0 06 e2 a3 bb 5e 12 cb 3a a3 fe b5 3b 4f 27 5c 3b
       -0.0050013093 0.0015493145 0.0055540367 0.0033592766
0002f0 b7 a2 21 3b 96 c4 3f ba 94 75 9e 3a 25 d2 43 bb
       0.0024663636 -0.00073153654 0.0012089484 -0.0029879895
000300 34 9a ba bb b1 23 25 bb cc ed 0f bb 5d 33 0b 39
       -0.005694652 -0.0025198276 -0.0021961806 0.00013275207
000310 f8 3a 8b bb a9 25 ca b7 d1 07 0b 3b f0 ae 6e 3a
       -0.004248973 -2.4097813e-05 0.0021214376 0.0009105047
000320 55 62 54 bb bf 86 3f bb 96 2d 1d bb 8a 53 86 bb
       -0.0032407243 -0.0029224602 -0.002398347 -0.004099314
000330 44 cb bf b9 45 55 8a bb 03 15 a2 bb 9c 41 d3 3a
       -0.00036581804 -0.0042215907 -0.0049463524 0.0016117576
000340 38 5f b2 ba 83 79 96 3b cd 29 49 3b a6 29 8f 3b
       -0.00136087 0.004592122 0.0030695081 0.0043689786
000350 e0 c2 80 bb df 21 a3 3b 9b 9c 47 bb dc bf c8 ba
       -0.003929481 0.004978403 -0.0030458334 -0.0015315968
000360 61 75 69 3b 4e 36 50 bb bc 44 ad bb 69 37 97 3a
       0.0035622942 -0.003177065 -0.005287735 0.0011536899
000370 a3 a0 95 3a 10 77 bb 3b c6 90 2e bb 15 67 28 ba
       0.0011415671 0.0057209805 -0.0026636585 -0.0006424052
000380 66 08 91 3b 97 91 d7 3a da 24 b9 3b e1 17 54 bb
       0.00442605 0.0016446587 0.005650145 -0.0032362866
000390 c3 98 e8 ba 9b 02 f2 ba 38 37 b2 3a 43 20 0e 3b
       -0.0017745722 -0.0018463911 0.0013596779 0.002168671
0003a0 c5 04 07 3b b1 b8 98 bb 4b b4 9e 3b f0 79 88 3b
       0.0020602208 -0.004660689 0.00484327 0.0041649267
0003b0 0f c4 91 bb e6 a8 74 3b f6 84 b0 3b e5 73 bc bb
       -0.004448421 0.0037332117 0.005386944 -0.0057511204
0003c0 09 85 fb b9 4b 63 08 3b 97 52 92 3b 10 40 fb ba
       -0.0004797357 0.0020811136 0.004465412 -0.0019168872
0003d0 52 a7 5f b8 b6 40 d2 ba 26 c8 21 39 71 ea c3 b9
       -5.3323172e-05 -0.0016041014 0.00015428718 -0.0003736797
0003e0 fd fe a6 3a 16 0d 29 bb 22 38 4a 3a e0 19 a4 3b
       0.0012740787 -0.0025795153 0.0007714053 0.0050079674
0003f0 90 61 3d bb 20 fd 80 ba 1f 17 d8 ba 25 25 f6 3a
       -0.0028897263 -0.0009841062 -0.0016486383 0.001877938

bias f4 [3]
000000 9e 67 6c 3c 61 ea a7 3b 04 b8 f0 bb
       0.014429001 0.0051243757 -0.007346155
